(Pytorch) ubuntu@ubuntu:~/Downloads/RSSAN-Hyperspectral-Image-main$ ./train_compare.sh
2022-05-09 20:13:36,271 - ---------loading Dataset----------
2022-05-09 20:13:43,337 - ---------initialize model----------
----------------------------------------------------------------
        Layer (type)               Output Shape         Param #
================================================================
 AdaptiveAvgPool2d-1            [16, 200, 1, 1]               0
 AdaptiveMaxPool2d-2            [16, 200, 1, 1]               0
            Linear-3                   [16, 25]           5,025
              ReLU-4                   [16, 25]               0
            Linear-5                  [16, 200]           5,200
           Sigmoid-6                  [16, 200]               0
            Linear-7                   [16, 25]           5,025
              ReLU-8                   [16, 25]               0
            Linear-9                  [16, 200]           5,200
          Sigmoid-10                  [16, 200]               0
          Sigmoid-11            [16, 200, 1, 1]               0
Spectral_attention-12            [16, 200, 1, 1]               0
           Conv2d-13            [16, 1, 17, 17]              19
          Sigmoid-14            [16, 1, 17, 17]               0
Spatial_attention-15            [16, 1, 17, 17]               0
           Conv2d-16           [16, 32, 17, 17]          57,632
      BatchNorm2d-17           [16, 32, 17, 17]              64
             ReLU-18           [16, 32, 17, 17]               0
           Conv2d-19           [16, 32, 17, 17]           9,248
      BatchNorm2d-20           [16, 32, 17, 17]              64
             ReLU-21           [16, 32, 17, 17]               0
           Conv2d-22           [16, 32, 17, 17]           9,248
      BatchNorm2d-23           [16, 32, 17, 17]              64
AdaptiveAvgPool2d-24             [16, 32, 1, 1]               0
AdaptiveMaxPool2d-25             [16, 32, 1, 1]               0
           Linear-26                    [16, 4]             132
             ReLU-27                    [16, 4]               0
           Linear-28                   [16, 32]             160
          Sigmoid-29                   [16, 32]               0
           Linear-30                    [16, 4]             132
             ReLU-31                    [16, 4]               0
           Linear-32                   [16, 32]             160
          Sigmoid-33                   [16, 32]               0
          Sigmoid-34             [16, 32, 1, 1]               0
Spectral_attention-35             [16, 32, 1, 1]               0
           Conv2d-36            [16, 1, 17, 17]              19
          Sigmoid-37            [16, 1, 17, 17]               0
Spatial_attention-38            [16, 1, 17, 17]               0
             ReLU-39           [16, 32, 17, 17]               0
           Conv2d-40           [16, 32, 17, 17]           9,248
      BatchNorm2d-41           [16, 32, 17, 17]              64
             ReLU-42           [16, 32, 17, 17]               0
           Conv2d-43           [16, 32, 17, 17]           9,248
      BatchNorm2d-44           [16, 32, 17, 17]              64
AdaptiveAvgPool2d-45             [16, 32, 1, 1]               0
AdaptiveMaxPool2d-46             [16, 32, 1, 1]               0
           Linear-47                    [16, 4]             132
             ReLU-48                    [16, 4]               0
           Linear-49                   [16, 32]             160
          Sigmoid-50                   [16, 32]               0
           Linear-51                    [16, 4]             132
             ReLU-52                    [16, 4]               0
           Linear-53                   [16, 32]             160
          Sigmoid-54                   [16, 32]               0
          Sigmoid-55             [16, 32, 1, 1]               0
Spectral_attention-56             [16, 32, 1, 1]               0
           Conv2d-57            [16, 1, 17, 17]              19
          Sigmoid-58            [16, 1, 17, 17]               0
Spatial_attention-59            [16, 1, 17, 17]               0
             ReLU-60           [16, 32, 17, 17]               0
        AvgPool2d-61           [16, 32, 17, 17]               0
           Conv2d-62           [16, 32, 17, 17]           1,056
           Linear-63                   [16, 16]         147,984
================================================================
Total params: 265,659
Trainable params: 265,659
Non-trainable params: 0
----------------------------------------------------------------
Input size (MB): 3.53
Forward/backward pass size (MB): 19.78
Params size (MB): 1.01
Estimated Total Size (MB): 24.33
----------------------------------------------------------------
2022-05-09 20:13:43,349 - ---------initialize parameter----------
…
2022-05-09 20:39:43,145 - ---------save model----------
2022-05-09 20:39:43,149 - ---------plot loss and accuracy----------
2022-05-09 20:39:43,979 - ---------Log results----------
OA, AA, kappa: [0.987993857322351, 0.9568304113626053, 0.9863008900669878]
each-acc： [… 2022-05-09 20:39:48,371 - ---------loading Dataset----------
2022-05-09 20:39:55,673 - ---------initialize model----------
----------------------------------------------------------------
        Layer (type)               Output Shape         Param #
================================================================
            Conv2d-1           [16, 32, 17, 17]          57,632
       BatchNorm2d-2           [16, 32, 17, 17]              64
              ReLU-3           [16, 32, 17, 17]               0
            Conv2d-4           [16, 32, 17, 17]           9,248
       BatchNorm2d-5           [16, 32, 17, 17]              64
              ReLU-6           [16, 32, 17, 17]               0
            Conv2d-7           [16, 32, 17, 17]           9,248
       BatchNorm2d-8           [16, 32, 17, 17]              64
 AdaptiveAvgPool2d-9             [16, 32, 1, 1]               0
AdaptiveMaxPool2d-10             [16, 32, 1, 1]               0
           Linear-11                    [16, 4]             132
             ReLU-12                    [16, 4]               0
           Linear-13                   [16, 32]             160
          Sigmoid-14                   [16, 32]               0
           Linear-15                    [16, 4]             132
             ReLU-16                    [16, 4]               0
           Linear-17                   [16, 32]             160
          Sigmoid-18                   [16, 32]               0
          Sigmoid-19             [16, 32, 1, 1]               0
Spectral_attention-20             [16, 32, 1, 1]               0
           Conv2d-21            [16, 1, 17, 17]              19
          Sigmoid-22            [16, 1, 17, 17]               0
Spatial_attention-23            [16, 1, 17, 17]               0
             ReLU-24           [16, 32, 17, 17]               0
           Conv2d-25           [16, 32, 17, 17]           9,248
      BatchNorm2d-26           [16, 32, 17, 17]              64
             ReLU-27           [16, 32, 17, 17]               0
           Conv2d-28           [16, 32, 17, 17]           9,248
      BatchNorm2d-29           [16, 32, 17, 17]              64
AdaptiveAvgPool2d-30             [16, 32, 1, 1]               0
AdaptiveMaxPool2d-31             [16, 32, 1, 1]               0
           Linear-32                    [16, 4]             132
             ReLU-33                    [16, 4]               0
           Linear-34                   [16, 32]             160
          Sigmoid-35                   [16, 32]               0
           Linear-36                    [16, 4]             132
             ReLU-37                    [16, 4]               0
           Linear-38                   [16, 32]             160
          Sigmoid-39                   [16, 32]               0
          Sigmoid-40             [16, 32, 1, 1]               0
Spectral_attention-41             [16, 32, 1, 1]               0
           Conv2d-42            [16, 1, 17, 17]              19
          Sigmoid-43            [16, 1, 17, 17]               0
Spatial_attention-44            [16, 1, 17, 17]               0
             ReLU-45           [16, 32, 17, 17]               0
        AvgPool2d-46           [16, 32, 17, 17]               0
           Conv2d-47           [16, 32, 17, 17]           1,056
           Linear-48                   [16, 16]         147,984
================================================================
Total params: 245,190
Trainable params: 245,190
Non-trainable params: 0
----------------------------------------------------------------
Input size (MB): 3.53
Forward/backward pass size (MB): 19.47
Params size (MB): 0.94
Estimated Total Size (MB): 23.93
----------------------------------------------------------------
2022-05-09 20:39:55,688 - ---------initialize parameter----------
…
2022-05-09 20:46:43,314 - ---------save model----------
2022-05-09 20:46:43,318 - ---------plot loss and accuracy----------
2022-05-09 20:46:43,630 - ---------Log results----------
OA, AA, kappa: [0.9819907859835264, 0.9775513071743489, 0.9794573853577189]
each-acc： [… 2022-05-09 20:46:47,318 - ---------loading Dataset----------
2022-05-09 20:46:54,597 - ---------initialize model----------
----------------------------------------------------------------
        Layer (type)               Output Shape         Param #
================================================================
 AdaptiveAvgPool2d-1            [16, 200, 1, 1]               0
 AdaptiveMaxPool2d-2            [16, 200, 1, 1]               0
            Linear-3                   [16, 25]           5,025
              ReLU-4                   [16, 25]               0
            Linear-5                  [16, 200]           5,200
           Sigmoid-6                  [16, 200]               0
            Linear-7                   [16, 25]           5,025
              ReLU-8                   [16, 25]               0
            Linear-9                  [16, 200]           5,200
          Sigmoid-10                  [16, 200]               0
          Sigmoid-11            [16, 200, 1, 1]               0
Spectral_attention-12            [16, 200, 1, 1]               0
           Conv2d-13            [16, 1, 17, 17]              19
          Sigmoid-14            [16, 1, 17, 17]               0
Spatial_attention-15            [16, 1, 17, 17]               0
           Conv2d-16           [16, 32, 17, 17]          57,632
      BatchNorm2d-17           [16, 32, 17, 17]              64
             ReLU-18           [16, 32, 17, 17]               0
           Conv2d-19           [16, 32, 17, 17]           9,248
      BatchNorm2d-20           [16, 32, 17, 17]              64
             ReLU-21           [16, 32, 17, 17]               0
           Conv2d-22           [16, 32, 17, 17]           9,248
      BatchNorm2d-23           [16, 32, 17, 17]              64
             ReLU-24           [16, 32, 17, 17]               0
           Conv2d-25           [16, 32, 17, 17]           9,248
      BatchNorm2d-26           [16, 32, 17, 17]              64
             ReLU-27           [16, 32, 17, 17]               0
           Conv2d-28           [16, 32, 17, 17]           9,248
      BatchNorm2d-29           [16, 32, 17, 17]              64
             ReLU-30           [16, 32, 17, 17]               0
        AvgPool2d-31           [16, 32, 17, 17]               0
           Conv2d-32           [16, 32, 17, 17]           1,056
           Linear-33                   [16, 16]         147,984
================================================================
Total params: 264,453
Trainable params: 264,453
Non-trainable params: 0
----------------------------------------------------------------
Input size (MB): 3.53
Forward/backward pass size (MB): 19.51
Params size (MB): 1.01
Estimated Total Size (MB): 24.04
----------------------------------------------------------------
2022-05-09 20:46:54,610 - ---------initialize parameter----------
…
2022-05-09 20:55:07,823 - ---------save model----------
2022-05-09 20:55:07,827 - ---------plot loss and accuracy----------
2022-05-09 20:55:08,141 - ---------Log results----------
OA, AA, kappa: [0.9870166131509144, 0.9821723605303185, 0.9851915864717194]
each-acc： [… 2022-05-09 20:55:11,935 - ---------loading Dataset----------
2022-05-09 20:55:19,314 - ---------initialize model----------
----------------------------------------------------------------
        Layer (type)               Output Shape         Param #
================================================================
 AdaptiveAvgPool2d-1            [16, 200, 1, 1]               0
 AdaptiveMaxPool2d-2            [16, 200, 1, 1]               0
            Linear-3                   [16, 25]           5,025
              ReLU-4                   [16, 25]               0
            Linear-5                  [16, 200]           5,200
           Sigmoid-6                  [16, 200]               0
            Linear-7                   [16, 25]           5,025
              ReLU-8                   [16, 25]               0
            Linear-9                  [16, 200]           5,200
          Sigmoid-10                  [16, 200]               0
          Sigmoid-11            [16, 200, 1, 1]               0
Spectral_attention-12            [16, 200, 1, 1]               0
           Conv2d-13            [16, 1, 17, 17]              19
          Sigmoid-14            [16, 1, 17, 17]               0
Spatial_attention-15            [16, 1, 17, 17]               0
           Conv2d-16           [16, 32, 17, 17]          57,632
      BatchNorm2d-17           [16, 32, 17, 17]              64
             ReLU-18           [16, 32, 17, 17]               0
           Conv2d-19           [16, 32, 17, 17]           9,248
      BatchNorm2d-20           [16, 32, 17, 17]              64
             ReLU-21           [16, 32, 17, 17]               0
           Conv2d-22           [16, 32, 17, 17]           9,248
      BatchNorm2d-23           [16, 32, 17, 17]              64
AdaptiveAvgPool2d-24             [16, 32, 1, 1]               0
AdaptiveMaxPool2d-25             [16, 32, 1, 1]               0
           Linear-26                    [16, 4]             132
             ReLU-27                    [16, 4]               0
           Linear-28                   [16, 32]             160
          Sigmoid-29                   [16, 32]               0
           Linear-30                    [16, 4]             132
             ReLU-31                    [16, 4]               0
           Linear-32                   [16, 32]             160
          Sigmoid-33                   [16, 32]               0
          Sigmoid-34             [16, 32, 1, 1]               0
Spectral_attention-35             [16, 32, 1, 1]               0
             ReLU-36           [16, 32, 17, 17]               0
           Conv2d-37           [16, 32, 17, 17]           9,248
      BatchNorm2d-38           [16, 32, 17, 17]              64
             ReLU-39           [16, 32, 17, 17]               0
           Conv2d-40           [16, 32, 17, 17]           9,248
      BatchNorm2d-41           [16, 32, 17, 17]              64
AdaptiveAvgPool2d-42             [16, 32, 1, 1]               0
AdaptiveMaxPool2d-43             [16, 32, 1, 1]               0
           Linear-44                    [16, 4]             132
             ReLU-45                    [16, 4]               0
           Linear-46                   [16, 32]             160
          Sigmoid-47                   [16, 32]               0
           Linear-48                    [16, 4]             132
             ReLU-49                    [16, 4]               0
           Linear-50                   [16, 32]             160
          Sigmoid-51                   [16, 32]               0
          Sigmoid-52             [16, 32, 1, 1]               0
Spectral_attention-53             [16, 32, 1, 1]               0
             ReLU-54           [16, 32, 17, 17]               0
        AvgPool2d-55           [16, 32, 17, 17]               0
           Conv2d-56           [16, 32, 17, 17]           1,056
           Linear-57                   [16, 16]         147,984
================================================================
Total params: 265,621
Trainable params: 265,621
Non-trainable params: 0
----------------------------------------------------------------
Input size (MB): 3.53
Forward/backward pass size (MB): 19.57
Params size (MB): 1.01
Estimated Total Size (MB): 24.11
----------------------------------------------------------------
2022-05-09 20:55:19,331 - ---------initialize parameter----------
…
2022-05-09 21:04:07,401 - ---------save model----------
2022-05-09 21:04:07,405 - ---------plot loss and accuracy----------
2022-05-09 21:04:07,719 - ---------Log results----------
OA, AA, kappa: [0.979757085020243, 0.9764010303095947, 0.9769033502044827]
each-acc： [… 2022-05-09 21:04:11,753 - ---------loading Dataset----------
2022-05-09 21:04:19,177 - ---------initialize model----------
----------------------------------------------------------------
        Layer (type)               Output Shape         Param #
================================================================
 AdaptiveAvgPool2d-1            [16, 200, 1, 1]               0
 AdaptiveMaxPool2d-2            [16, 200, 1, 1]               0
            Linear-3                   [16, 25]           5,025
              ReLU-4                   [16, 25]               0
            Linear-5                  [16, 200]           5,200
           Sigmoid-6                  [16, 200]               0
            Linear-7                   [16, 25]           5,025
              ReLU-8                   [16, 25]               0
            Linear-9                  [16, 200]           5,200
          Sigmoid-10                  [16, 200]               0
          Sigmoid-11            [16, 200, 1, 1]               0
Spectral_attention-12            [16, 200, 1, 1]               0
           Conv2d-13            [16, 1, 17, 17]              19
          Sigmoid-14            [16, 1, 17, 17]               0
Spatial_attention-15            [16, 1, 17, 17]               0
           Conv2d-16           [16, 32, 17, 17]          57,632
      BatchNorm2d-17           [16, 32, 17, 17]              64
             ReLU-18           [16, 32, 17, 17]               0
           Conv2d-19           [16, 32, 17, 17]           9,248
      BatchNorm2d-20           [16, 32, 17, 17]              64
             ReLU-21           [16, 32, 17, 17]               0
           Conv2d-22           [16, 32, 17, 17]           9,248
      BatchNorm2d-23           [16, 32, 17, 17]              64
           Conv2d-24            [16, 1, 17, 17]              19
          Sigmoid-25            [16, 1, 17, 17]               0
Spatial_attention-26            [16, 1, 17, 17]               0
             ReLU-27           [16, 32, 17, 17]               0
           Conv2d-28           [16, 32, 17, 17]           9,248
      BatchNorm2d-29           [16, 32, 17, 17]              64
             ReLU-30           [16, 32, 17, 17]               0
           Conv2d-31           [16, 32, 17, 17]           9,248
      BatchNorm2d-32           [16, 32, 17, 17]              64
           Conv2d-33            [16, 1, 17, 17]              19
          Sigmoid-34            [16, 1, 17, 17]               0
Spatial_attention-35            [16, 1, 17, 17]               0
             ReLU-36           [16, 32, 17, 17]               0
        AvgPool2d-37           [16, 32, 17, 17]               0
           Conv2d-38           [16, 32, 17, 17]           1,056
           Linear-39                   [16, 16]         147,984
================================================================
Total params: 264,491
Trainable params: 264,491
Non-trainable params: 0
----------------------------------------------------------------
Input size (MB): 3.53
Forward/backward pass size (MB): 19.72
Params size (MB): 1.01
Estimated Total Size (MB): 24.26
----------------------------------------------------------------
2022-05-09 21:04:19,192 - ---------initialize parameter----------
…
2022-05-09 21:12:56,918 - ---------save model----------
2022-05-09 21:12:56,922 - ---------plot loss and accuracy----------
2022-05-09 21:12:57,255 - ---------Log results----------
OA, AA, kappa: [0.9818511796733213, 0.9865744639269035, 0.9793034776420816]
each-acc： [… 2022-05-09 21:13:01,263 - ---------loading Dataset----------
2022-05-09 21:13:08,561 - ---------initialize model----------
----------------------------------------------------------------
        Layer (type)               Output Shape         Param #
================================================================
 AdaptiveAvgPool2d-1            [16, 200, 1, 1]               0
              ReLU-2                  [16, 200]               0
           Sigmoid-3                  [16, 200]               0
Spectral_attention_s-4            [16, 200, 1, 1]               0
            Conv2d-5            [16, 1, 17, 17]              10
              ReLU-6            [16, 1, 17, 17]               0
            Conv2d-7            [16, 1, 17, 17]              10
           Sigmoid-8            [16, 1, 17, 17]               0
Spatial_attention_s-9            [16, 1, 17, 17]               0
           Conv2d-10           [16, 32, 17, 17]          57,632
      BatchNorm2d-11           [16, 32, 17, 17]              64
             ReLU-12           [16, 32, 17, 17]               0
           Conv2d-13           [16, 32, 17, 17]           9,248
      BatchNorm2d-14           [16, 32, 17, 17]              64
             ReLU-15           [16, 32, 17, 17]               0
           Conv2d-16           [16, 32, 17, 17]           9,248
      BatchNorm2d-17           [16, 32, 17, 17]              64
AdaptiveAvgPool2d-18             [16, 32, 1, 1]               0
             ReLU-19                   [16, 32]               0
          Sigmoid-20                   [16, 32]               0
Spectral_attention_s-21             [16, 32, 1, 1]               0
           Conv2d-22            [16, 1, 17, 17]              10
             ReLU-23            [16, 1, 17, 17]               0
           Conv2d-24            [16, 1, 17, 17]              10
          Sigmoid-25            [16, 1, 17, 17]               0
Spatial_attention_s-26            [16, 1, 17, 17]               0
             ReLU-27           [16, 32, 17, 17]               0
           Conv2d-28           [16, 32, 17, 17]           9,248
      BatchNorm2d-29           [16, 32, 17, 17]              64
             ReLU-30           [16, 32, 17, 17]               0
           Conv2d-31           [16, 32, 17, 17]           9,248
      BatchNorm2d-32           [16, 32, 17, 17]              64
AdaptiveAvgPool2d-33             [16, 32, 1, 1]               0
             ReLU-34                   [16, 32]               0
          Sigmoid-35                   [16, 32]               0
Spectral_attention_s-36             [16, 32, 1, 1]               0
           Conv2d-37            [16, 1, 17, 17]              10
             ReLU-38            [16, 1, 17, 17]               0
           Conv2d-39            [16, 1, 17, 17]              10
          Sigmoid-40            [16, 1, 17, 17]               0
Spatial_attention_s-41            [16, 1, 17, 17]               0
             ReLU-42           [16, 32, 17, 17]               0
        AvgPool2d-43           [16, 32, 17, 17]               0
           Conv2d-44           [16, 32, 17, 17]           1,056
           Linear-45                   [16, 16]         147,984
================================================================
Total params: 244,044
Trainable params: 244,044
Non-trainable params: 0
----------------------------------------------------------------
Input size (MB): 3.53
Forward/backward pass size (MB): 19.85
Params size (MB): 0.93
Estimated Total Size (MB): 24.31
----------------------------------------------------------------
2022-05-09 21:13:08,578 - ---------initialize parameter----------
…
2022-05-09 21:23:15,323 - ---------save model----------
2022-05-09 21:23:15,327 - ---------plot loss and accuracy----------
2022-05-09 21:23:15,661 - ---------Log results----------
OA, AA, kappa: [0.9811531481222951, 0.9722324245834699, 0.9785086746385959]
each-acc： [… 2022-05-09 21:23:20,117 - ---------loading Dataset----------
2022-05-09 21:23:27,539 - ---------initialize model----------
----------------------------------------------------------------
        Layer (type)               Output Shape         Param #
================================================================
 AdaptiveAvgPool2d-1            [16, 200, 1, 1]               0
              ReLU-2                  [16, 200]               0
           Sigmoid-3                  [16, 200]               0
Spectral_attention_s-4            [16, 200, 1, 1]               0
            Conv2d-5            [16, 1, 17, 17]              19
           Sigmoid-6            [16, 1, 17, 17]               0
 Spatial_attention-7            [16, 1, 17, 17]               0
            Conv2d-8           [16, 32, 17, 17]          57,632
       BatchNorm2d-9           [16, 32, 17, 17]              64
             ReLU-10           [16, 32, 17, 17]               0
           Conv2d-11           [16, 32, 17, 17]           9,248
      BatchNorm2d-12           [16, 32, 17, 17]              64
             ReLU-13           [16, 32, 17, 17]               0
           Conv2d-14           [16, 32, 17, 17]           9,248
      BatchNorm2d-15           [16, 32, 17, 17]              64
AdaptiveAvgPool2d-16             [16, 32, 1, 1]               0
             ReLU-17                   [16, 32]               0
          Sigmoid-18                   [16, 32]               0
Spectral_attention_s-19             [16, 32, 1, 1]               0
           Conv2d-20            [16, 1, 17, 17]              19
          Sigmoid-21            [16, 1, 17, 17]               0
Spatial_attention-22            [16, 1, 17, 17]               0
             ReLU-23           [16, 32, 17, 17]               0
           Conv2d-24           [16, 32, 17, 17]           9,248
      BatchNorm2d-25           [16, 32, 17, 17]              64
             ReLU-26           [16, 32, 17, 17]               0
           Conv2d-27           [16, 32, 17, 17]           9,248
      BatchNorm2d-28           [16, 32, 17, 17]              64
AdaptiveAvgPool2d-29             [16, 32, 1, 1]               0
             ReLU-30                   [16, 32]               0
          Sigmoid-31                   [16, 32]               0
Spectral_attention_s-32             [16, 32, 1, 1]               0
           Conv2d-33            [16, 1, 17, 17]              19
          Sigmoid-34            [16, 1, 17, 17]               0
Spatial_attention-35            [16, 1, 17, 17]               0
             ReLU-36           [16, 32, 17, 17]               0
        AvgPool2d-37           [16, 32, 17, 17]               0
           Conv2d-38           [16, 32, 17, 17]           1,056
           Linear-39                   [16, 16]         147,984
================================================================
Total params: 244,041
Trainable params: 244,041
Non-trainable params: 0
----------------------------------------------------------------
Input size (MB): 3.53
Forward/backward pass size (MB): 19.64
Params size (MB): 0.93
Estimated Total Size (MB): 24.10
----------------------------------------------------------------
2022-05-09 21:23:27,554 - ---------initialize parameter----------
…
2022-05-09 21:32:36,301 - ---------save model----------
2022-05-09 21:32:36,305 - ---------plot loss and accuracy----------
2022-05-09 21:32:36,612 - ---------Log results----------
OA, AA, kappa: [0.9822699986039369, 0.9826265025120142, 0.9797729714766303]
each-acc： [… 2022-05-09 21:32:40,943 - ---------loading Dataset----------
2022-05-09 21:32:48,370 - ---------initialize model----------
----------------------------------------------------------------
        Layer (type)               Output Shape         Param #
================================================================
 AdaptiveAvgPool2d-1            [16, 200, 1, 1]               0
 AdaptiveMaxPool2d-2            [16, 200, 1, 1]               0
            Linear-3                   [16, 25]           5,025
              ReLU-4                   [16, 25]               0
            Linear-5                  [16, 200]           5,200
           Sigmoid-6                  [16, 200]               0
            Linear-7                   [16, 25]           5,025
              ReLU-8                   [16, 25]               0
            Linear-9                  [16, 200]           5,200
          Sigmoid-10                  [16, 200]               0
          Sigmoid-11            [16, 200, 1, 1]               0
Spectral_attention-12            [16, 200, 1, 1]               0
           Conv2d-13            [16, 1, 17, 17]              10
             ReLU-14            [16, 1, 17, 17]               0
           Conv2d-15            [16, 1, 17, 17]              10
          Sigmoid-16            [16, 1, 17, 17]               0
Spatial_attention_s-17            [16, 1, 17, 17]               0
           Conv2d-18           [16, 32, 17, 17]          57,632
      BatchNorm2d-19           [16, 32, 17, 17]              64
             ReLU-20           [16, 32, 17, 17]               0
           Conv2d-21           [16, 32, 17, 17]           9,248
      BatchNorm2d-22           [16, 32, 17, 17]              64
             ReLU-23           [16, 32, 17, 17]               0
           Conv2d-24           [16, 32, 17, 17]           9,248
      BatchNorm2d-25           [16, 32, 17, 17]              64
AdaptiveAvgPool2d-26             [16, 32, 1, 1]               0
AdaptiveMaxPool2d-27             [16, 32, 1, 1]               0
           Linear-28                    [16, 4]             132
             ReLU-29                    [16, 4]               0
           Linear-30                   [16, 32]             160
          Sigmoid-31                   [16, 32]               0
           Linear-32                    [16, 4]             132
             ReLU-33                    [16, 4]               0
           Linear-34                   [16, 32]             160
          Sigmoid-35                   [16, 32]               0
          Sigmoid-36             [16, 32, 1, 1]               0
Spectral_attention-37             [16, 32, 1, 1]               0
           Conv2d-38            [16, 1, 17, 17]              10
             ReLU-39            [16, 1, 17, 17]               0
           Conv2d-40            [16, 1, 17, 17]              10
          Sigmoid-41            [16, 1, 17, 17]               0
Spatial_attention_s-42            [16, 1, 17, 17]               0
             ReLU-43           [16, 32, 17, 17]               0
           Conv2d-44           [16, 32, 17, 17]           9,248
      BatchNorm2d-45           [16, 32, 17, 17]              64
             ReLU-46           [16, 32, 17, 17]               0
           Conv2d-47           [16, 32, 17, 17]           9,248
      BatchNorm2d-48           [16, 32, 17, 17]              64
AdaptiveAvgPool2d-49             [16, 32, 1, 1]               0
AdaptiveMaxPool2d-50             [16, 32, 1, 1]               0
           Linear-51                    [16, 4]             132
             ReLU-52                    [16, 4]               0
           Linear-53                   [16, 32]             160
          Sigmoid-54                   [16, 32]               0
           Linear-55                    [16, 4]             132
             ReLU-56                    [16, 4]               0
           Linear-57                   [16, 32]             160
          Sigmoid-58                   [16, 32]               0
          Sigmoid-59             [16, 32, 1, 1]               0
Spectral_attention-60             [16, 32, 1, 1]               0
           Conv2d-61            [16, 1, 17, 17]              10
             ReLU-62            [16, 1, 17, 17]               0
           Conv2d-63            [16, 1, 17, 17]              10
          Sigmoid-64            [16, 1, 17, 17]               0
Spatial_attention_s-65            [16, 1, 17, 17]               0
             ReLU-66           [16, 32, 17, 17]               0
        AvgPool2d-67           [16, 32, 17, 17]               0
           Conv2d-68           [16, 32, 17, 17]           1,056
           Linear-69                   [16, 16]         147,984
================================================================
Total params: 265,662
Trainable params: 265,662
Non-trainable params: 0
----------------------------------------------------------------
Input size (MB): 3.53
Forward/backward pass size (MB): 20.00
Params size (MB): 1.01
Estimated Total Size (MB): 24.54
----------------------------------------------------------------
2022-05-09 21:32:48,389 - ---------initialize parameter----------
…
