2022-05-29 09:48:59,470 - ---------loading Dataset----------
2022-05-29 09:49:06,891 - ---------initialize model----------
----------------------------------------------------------------
        Layer (type)               Output Shape         Param #
================================================================
 AdaptiveAvgPool2d-1            [16, 200, 1, 1]               0
              ReLU-2                  [16, 200]               0
           Sigmoid-3                  [16, 200]               0
Spectral_attention_s-4            [16, 200, 1, 1]               0
            Conv2d-5            [16, 1, 17, 17]              10
              ReLU-6            [16, 1, 17, 17]               0
            Conv2d-7            [16, 1, 17, 17]              10
           Sigmoid-8            [16, 1, 17, 17]               0
Spatial_attention_s-9            [16, 1, 17, 17]               0
           Conv2d-10           [16, 32, 17, 17]          57,632
      BatchNorm2d-11           [16, 32, 17, 17]              64
             ReLU-12           [16, 32, 17, 17]               0
           Conv2d-13           [16, 32, 17, 17]           9,248
      BatchNorm2d-14           [16, 32, 17, 17]              64
             ReLU-15           [16, 32, 17, 17]               0
           Conv2d-16           [16, 32, 17, 17]           9,248
      BatchNorm2d-17           [16, 32, 17, 17]              64
AdaptiveAvgPool2d-18             [16, 32, 1, 1]               0
             ReLU-19                   [16, 32]               0
          Sigmoid-20                   [16, 32]               0
Spectral_attention_s-21             [16, 32, 1, 1]               0
           Conv2d-22            [16, 1, 17, 17]              10
             ReLU-23            [16, 1, 17, 17]               0
           Conv2d-24            [16, 1, 17, 17]              10
          Sigmoid-25            [16, 1, 17, 17]               0
Spatial_attention_s-26            [16, 1, 17, 17]               0
             ReLU-27           [16, 32, 17, 17]               0
           Conv2d-28           [16, 32, 17, 17]           9,248
      BatchNorm2d-29           [16, 32, 17, 17]              64
             ReLU-30           [16, 32, 17, 17]               0
           Conv2d-31           [16, 32, 17, 17]           9,248
      BatchNorm2d-32           [16, 32, 17, 17]              64
AdaptiveAvgPool2d-33             [16, 32, 1, 1]               0
             ReLU-34                   [16, 32]               0
          Sigmoid-35                   [16, 32]               0
Spectral_attention_s-36             [16, 32, 1, 1]               0
           Conv2d-37            [16, 1, 17, 17]              10
             ReLU-38            [16, 1, 17, 17]               0
           Conv2d-39            [16, 1, 17, 17]              10
          Sigmoid-40            [16, 1, 17, 17]               0
Spatial_attention_s-41            [16, 1, 17, 17]               0
             ReLU-42           [16, 32, 17, 17]               0
        AvgPool2d-43           [16, 32, 17, 17]               0
           Conv2d-44           [16, 32, 17, 17]           1,056
           Linear-45                   [16, 16]         147,984
================================================================
Total params: 244,044
Trainable params: 244,044
Non-trainable params: 0
----------------------------------------------------------------
Input size (MB): 3.53
Forward/backward pass size (MB): 19.85
Params size (MB): 0.93
Estimated Total Size (MB): 24.31
----------------------------------------------------------------
2022-05-29 09:49:06,907 - ---------initialize parameter----------
…
