2022-05-29 09:30:29,596 - ---------loading Dataset----------
2022-05-29 09:30:37,098 - ---------initialize model----------
----------------------------------------------------------------
        Layer (type)               Output Shape         Param #
================================================================
            Conv2d-1           [16, 32, 17, 17]          57,632
       BatchNorm2d-2           [16, 32, 17, 17]              64
              ReLU-3           [16, 32, 17, 17]               0
            Conv2d-4           [16, 32, 17, 17]           9,248
       BatchNorm2d-5           [16, 32, 17, 17]              64
              ReLU-6           [16, 32, 17, 17]               0
            Conv2d-7           [16, 32, 17, 17]           9,248
       BatchNorm2d-8           [16, 32, 17, 17]              64
              ReLU-9           [16, 32, 17, 17]               0
           Conv2d-10           [16, 32, 17, 17]           9,248
      BatchNorm2d-11           [16, 32, 17, 17]              64
             ReLU-12           [16, 32, 17, 17]               0
           Conv2d-13           [16, 32, 17, 17]           9,248
      BatchNorm2d-14           [16, 32, 17, 17]              64
             ReLU-15           [16, 32, 17, 17]               0
        AvgPool2d-16           [16, 32, 17, 17]               0
           Conv2d-17           [16, 32, 17, 17]           1,056
           Linear-18                   [16, 16]         147,984
================================================================
Total params: 243,984
Trainable params: 243,984
Non-trainable params: 0
----------------------------------------------------------------
Input size (MB): 3.53
Forward/backward pass size (MB): 19.19
Params size (MB): 0.93
Estimated Total Size (MB): 23.65
----------------------------------------------------------------
2022-05-29 09:30:37,110 - ---------initialize parameter----------
…
