2022-05-29 11:41:14,363 - ---------loading Dataset----------
2022-05-29 11:41:20,078 - ---------initialize model----------
----------------------------------------------------------------
        Layer (type)               Output Shape         Param #
================================================================
 AdaptiveAvgPool2d-1            [16, 176, 1, 1]               0
 AdaptiveMaxPool2d-2            [16, 176, 1, 1]               0
            Linear-3                   [16, 22]           3,894
              ReLU-4                   [16, 22]               0
            Linear-5                  [16, 176]           4,048
           Sigmoid-6                  [16, 176]               0
            Linear-7                   [16, 22]           3,894
              ReLU-8                   [16, 22]               0
            Linear-9                  [16, 176]           4,048
          Sigmoid-10                  [16, 176]               0
          Sigmoid-11            [16, 176, 1, 1]               0
Spectral_attention-12            [16, 176, 1, 1]               0
           Conv2d-13            [16, 1, 17, 17]              19
          Sigmoid-14            [16, 1, 17, 17]               0
Spatial_attention-15            [16, 1, 17, 17]               0
           Conv2d-16           [16, 32, 17, 17]          50,720
      BatchNorm2d-17           [16, 32, 17, 17]              64
             ReLU-18           [16, 32, 17, 17]               0
           Conv2d-19           [16, 32, 17, 17]           9,248
      BatchNorm2d-20           [16, 32, 17, 17]              64
             ReLU-21           [16, 32, 17, 17]               0
           Conv2d-22           [16, 32, 17, 17]           9,248
      BatchNorm2d-23           [16, 32, 17, 17]              64
AdaptiveAvgPool2d-24             [16, 32, 1, 1]               0
AdaptiveMaxPool2d-25             [16, 32, 1, 1]               0
           Linear-26                    [16, 4]             132
             ReLU-27                    [16, 4]               0
           Linear-28                   [16, 32]             160
          Sigmoid-29                   [16, 32]               0
           Linear-30                    [16, 4]             132
             ReLU-31                    [16, 4]               0
           Linear-32                   [16, 32]             160
          Sigmoid-33                   [16, 32]               0
          Sigmoid-34             [16, 32, 1, 1]               0
Spectral_attention-35             [16, 32, 1, 1]               0
           Conv2d-36            [16, 1, 17, 17]              19
          Sigmoid-37            [16, 1, 17, 17]               0
Spatial_attention-38            [16, 1, 17, 17]               0
             ReLU-39           [16, 32, 17, 17]               0
           Conv2d-40           [16, 32, 17, 17]           9,248
      BatchNorm2d-41           [16, 32, 17, 17]              64
             ReLU-42           [16, 32, 17, 17]               0
           Conv2d-43           [16, 32, 17, 17]           9,248
      BatchNorm2d-44           [16, 32, 17, 17]              64
AdaptiveAvgPool2d-45             [16, 32, 1, 1]               0
AdaptiveMaxPool2d-46             [16, 32, 1, 1]               0
           Linear-47                    [16, 4]             132
             ReLU-48                    [16, 4]               0
           Linear-49                   [16, 32]             160
          Sigmoid-50                   [16, 32]               0
           Linear-51                    [16, 4]             132
             ReLU-52                    [16, 4]               0
           Linear-53                   [16, 32]             160
          Sigmoid-54                   [16, 32]               0
          Sigmoid-55             [16, 32, 1, 1]               0
Spectral_attention-56             [16, 32, 1, 1]               0
           Conv2d-57            [16, 1, 17, 17]              19
          Sigmoid-58            [16, 1, 17, 17]               0
Spatial_attention-59            [16, 1, 17, 17]               0
             ReLU-60           [16, 32, 17, 17]               0
        AvgPool2d-61           [16, 32, 17, 17]               0
           Conv2d-62           [16, 32, 17, 17]           1,056
           Linear-63                   [16, 13]         120,237
================================================================
Total params: 226,434
Trainable params: 226,434
Non-trainable params: 0
----------------------------------------------------------------
Input size (MB): 3.10
Forward/backward pass size (MB): 19.76
Params size (MB): 0.86
Estimated Total Size (MB): 23.73
----------------------------------------------------------------
2022-05-29 11:41:20,091 - ---------initialize parameter----------
…
